in-vivo/fits/CTCF_ChIP-seq_end5.pt (torch, 196444 bytes, 11 tensors)

experiments.0.rounds.1.aggregate.contributions.1.binding.layers.1.log_posbias f4 [1, 2, 1]
0.0 0.0
00000000: 0000 0000 0000 0000

experiments.0.rounds.2.aggregate.contributions.1.binding.layers.1.log_posbias f4 [1, 2, 1]
0.0 0.0
00000000: 0000 0000 0000 0000

experiments.0.rounds.3.aggregate.contributions.1.binding.layers.1.log_posbias f4 [1, 2, 1]
0.0 0.0
00000000: 0000 0000 0000 0000

experiments.0.rounds.4.aggregate.contributions.1.binding.layers.1.log_posbias f4 [1, 2, 1]
0.0 0.0
00000000: 0000 0000 0000 0000

experiments.0.rounds.5.aggregate.contributions.1.binding.layers.1.log_posbias f4 [1, 2, 1]
0.0 0.0
00000000: 0000 0000 0000 0000

experiments.0.rounds.6.aggregate.contributions.1.binding.layers.1.log_posbias f4 [1, 2, 1]
0.0 0.0
00000000: 0000 0000 0000 0000

experiments.0.rounds.7.aggregate.contributions.1.binding.layers.1.log_posbias f4 [1, 2, 1]
0.0 0.0
00000000: 0000 0000 0000 0000

experiments.0.rounds.8.aggregate.contributions.1.binding.layers.1.log_posbias f4 [1, 2, 1]
0.0 0.0
00000000: 0000 0000 0000 0000

experiments.0.rounds.9.aggregate.contributions.1.binding.layers.1.log_posbias f4 [1, 2, 1]
0.0 0.0
00000000: 0000 0000 0000 0000

experiments.0.rounds.10.aggregate.contributions.1.binding.layers.1.log_posbias f4 [1, 2, 1]
0.0 0.0
00000000: 0000 0000 0000 0000

experiments.0.rounds.11.aggregate.contributions.1.binding.layers.1.log_posbias f4 [1, 1, 29]
-0.38663858 -0.17890735 -0.42411512 -0.33068225 -0.19566265 -0.2916184 0.0815835 -0.35502416
0.010547242 0.14678824 0.1618021 0.11815162 0.1376077 0.25207123 0.20790033 -0.13147882
0.217591 0.18736018 -0.11643444 0.13823405 0.025561966 -0.044372145 -0.0648759 -0.15479131
-0.093193315 -0.31294748 -0.062738016 -0.57943755 -0.11559529
00000000: 7ef5 c5be 7d33 37be 9e25 d9be 2f4f a9be
00000010: ca5b 48be 024f 95be 4015 a73d bac5 b5be
00000020: 57ce 2c3c a84f 163e 73af 253e 7af9 f13d
00000030: 08e9 0c3e 7b0f 813e d3e3 543e 62a2 06be
00000040: 2dd0 5e3e 59db 3f3e 2e75 eebd 3a8d 0d3e
00000050: 5467 d13c 91bf 35bd a8dd 84bd 9d81 1ebe
00000060: 23dc bebd a73a a0be ca7c 80bd 0556 14bf
00000070: 39bd ecbd
