in-vivo/fits/CTCF_ChIP-exo5_end0.pt (torch, 34562 bytes, 1 tensors)

experiments.0.rounds.1.aggregate.contributions.1.binding.layers.1.log_posbias f4 [1, 1, 25]
00000000: ab29 233f 6475 31be 8a67 e9be cc3d d0bd
00000010: 0c6f 65bd 1718 443e 4194 1aba 6114 783d
00000020: 24ba 3fbe 5dd5 0bbe 8ab3 87be 499f 8ebd
00000030: 9e9b a43c ebac eebd 85cc 933d ad94 00bc
00000040: 9bf6 a0bd b8ec bd3c e47e e63d 6f3d 053e
00000050: 2ed3 43bd d28c 13be 30db a1be 3c20 b83e
00000060: f65e 123f
0.63735455 -0.17329937 -0.45586807 -0.10168037 -0.056014106 0.19149815 -0.00058967253 0.06056631
-0.18723351 -0.1365561 -0.26504165 -0.06963975 0.020093735 -0.11654075 0.072167434 -0.007847947
-0.07859536 0.023184165 0.11254671 0.13011716 -0.04780882 -0.14409187 -0.3161254 0.35962093
0.5717615
