in-vivo/fits/CTCF_CUTnTag_center.pt (torch, 33383 bytes, 1 tensors)

experiments.0.rounds.1.aggregate.contributions.1.binding.layers.0.log_posbias f4 [1, 1, 37]
000000 f8 0c c8 39 4f 99 9b 39 e5 ac 09 39 f6 e8 29 39
       0.00038156635 0.00029678128 0.00013129746 0.0001620388
000010 a8 40 80 b6 3f 6b 72 37 2b e9 d1 b8 87 6a ec b8
       -3.8222242e-06 1.4449294e-05 -0.000100093275 -0.00011273199
000020 bd 24 74 b6 c9 a5 f7 b8 d6 93 4d b9 9f 77 8f b8
       -3.6380218e-06 -0.00011808758 -0.00019605397 -6.8410525e-05
000030 c0 a7 39 b9 16 5e be b7 93 73 44 b8 91 8a 12 b9
       -0.00017705467 -2.2693577e-05 -4.683768e-05 -0.00013975265
000040 53 ed fd 37 07 72 d2 38 d2 84 cf 38 43 23 ce 37
       3.0270463e-05 0.000100348196 9.895269e-05 2.4573534e-05
000050 a8 44 1b b6 92 bb b3 37 09 43 c1 b8 6f f5 28 b9
       -2.3136763e-06 2.1425807e-05 -9.2154434e-05 -0.0001611316
000060 e0 65 b4 b8 36 b2 35 b9 aa 8a 0f b9 b7 c6 31 b9
       -8.6020445e-05 -0.00017327894 -0.00013689199 -0.00016954062
000070 82 e2 00 b9 89 f9 90 b8 b6 32 b9 38 59 bf 11 b8
       -0.00012291412 -6.9129346e-05 8.830933e-05 -3.47489e-05
000080 32 26 15 38 e8 9c a6 38 47 20 2c 39 ab f9 97 39
       3.555994e-05 7.944723e-05 0.00016415222 0.00028986981
000090 2d 16 e9 38
       0.00011114436
