in-vivo/fits/CTCF_ChIP-exo5_end1.pt (torch, 67918 bytes, 3 tensors)

experiments.0.rounds.1.aggregate.contributions.1.binding.layers.1.log_posbias f4 [1, 2, 1]
0.0 0.0
00000000: 0000 0000 0000 0000

experiments.0.rounds.2.aggregate.contributions.1.binding.layers.1.log_posbias f4 [1, 2, 1]
0.0 0.0
00000000: 0000 0000 0000 0000

experiments.0.rounds.3.aggregate.contributions.1.binding.layers.1.log_posbias f4 [1, 1, 25]
-0.20858783 -0.26338026 -0.1694164 -0.007310264 0.054162 0.1815194 0.06809975 0.10527244
-0.03341672 -0.009648274 0.0180425 0.04495359 0.13344797 0.049352925 0.20680466 0.08620197
0.060483295 0.04006255 0.14573976 0.13432004 0.06847358 0.0052375924 -0.15536676 -0.19544023
-0.13821307
00000000: 0c98 55be c7d9 86be 7e7b 2dbe f08a efbb
00000010: f9d8 5d3d 39e0 393e e277 8b3d 1499 d73d
00000020: f8df 08bd cb13 1ebc ddcd 933c 4121 383d
00000030: 96a6 083e 4b26 4a3d 9ac4 533e a98a b03d
00000040: 55bd 773d a118 243d ce3c 153e 318b 093e
00000050: e03b 8c3d 1ca0 ab3b 7718 1fbe 7c21 48be
00000060: ba87 0dbe
