in-vivo/fits/CTCF_ChIP-exo5_center.pt (torch, 33569 bytes, 1 tensors)

experiments.0.rounds.1.aggregate.contributions.1.binding.layers.0.log_posbias f4 [1, 1, 37]
0	0xb838155a	-4.3888904e-05
1	0xb8195658	-3.6558456e-05
2	0xb7ea1db4	-2.7908805e-05
3	0xb839a680	-4.4262502e-05
4	0xb72de1d4	-1.0364183e-05
5	0xb811a957	-3.4728404e-05
6	0xb849bf2e	-4.8100184e-05
7	0xb7969cd9	-1.7954431e-05
8	0xb7d53362	-2.5415506e-05
9	0xb77d5781	-1.5100349e-05
10	0xb777c92b	-1.4769185e-05
11	0x37382356	1.0975482e-05
12	0x37240932	9.777303e-06
13	0x38a6304f	7.924495e-05
14	0x388717ff	6.441771e-05
15	0x385d0b5c	5.2701085e-05
16	0x3809709c	3.276822e-05
17	0x38551789	5.0805076e-05
18	0x3886ecdb	6.433736e-05
19	0x3816ebd9	3.5982437e-05
20	0x3886efa5	6.434255e-05
21	0x37a3066c	1.9434105e-05
22	0x38335133	4.275255e-05
23	0x379abffe	1.8447634e-05
24	0x386bc85a	5.6214958e-05
25	0xb798c05f	-1.8209392e-05
26	0x36ec4c08	7.0421993e-06
27	0xb6b055d0	-5.2551986e-06
28	0xb5ba68ae	-1.3888546e-06
29	0xb786b201	-1.6056934e-05
30	0xb8303217	-4.200832e-05
31	0xb85e715e	-5.3034506e-05
32	0xb84cf4fc	-4.886555e-05
33	0xb73813e2	-1.0971884e-05
34	0xb809edf7	-3.2884967e-05
35	0xb83b1e96	-4.461276e-05
36	0xb7a3bb12	-1.9518226e-05
