in-vivo/fits/CTCF_ChIP-seq_end0.pt (torch, 34466 bytes, 1 tensors)

experiments.0.rounds.1.aggregate.contributions.1.binding.layers.1.log_posbias f4 [1, 1, 29]
4.5198245 -0.24503426 -1.2166908 -1.2777352 -0.019677583 -0.98163074 -0.58337045 -0.6266607
-0.1962491 0.23241241 0.00681803 0.076667935 -0.16819373 -0.26998547 -0.5455641 -0.53080165
0.13746476 -0.18901053 -0.12517789 -0.18418129 -0.7384734 -0.33231324 -0.6792771 -0.7888473
0.25815445 -0.93375546 -1.0478384 1.779391 4.6980047
00000000: 67a2 9040 43ea 7abe 86bc 9bbf d48c a3bf
00000010: e232 a1bc 274c 7bbf c457 15bf d66c 20bf
00000020: 86f5 48be 85fd 6d3e c869 df3b 1404 9d3d
00000030: fa3a 2cbe 893b 8abe 17aa 0bbf 9ee2 07bf
00000040: 90c3 0c3e fa8b 41be a22e 00be 059a 3cbe
00000050: 980c 3dbf f624 aabe 1be5 2dbf e6f1 49bf
00000060: d22c 843e 990a 6fbf 921f 86bf 16c3 e33f
00000070: 0e56 9640
